model/model.pth (torch_old, 88668 bytes, 8 tensors)

conv1.weight f4 [10, 1, 5, 5]
000000 a0 71 2e 3d 5f 15 f1 3d 42 99 21 be d1 42 fe bd
       0.04258883 0.11771654 -0.1578112 -0.12415088
000010 34 2a 33 3e 80 5a ef bc ab 41 81 3e 1e d3 80 be
       0.17496568 -0.029217958 0.25245413 -0.2516107
000020 b6 54 a0 be 9a 24 85 3e b2 26 08 be a6 f2 91 3e
       -0.3131463 0.26004487 -0.13296011 0.2850544
000030 a6 92 2d be 41 08 0e bf f4 8b 58 3e 29 f7 e8 3d
       -0.16950473 -0.55481344 0.21147138 0.11375267
000040 c5 f9 a4 3e 51 9a 1e be cf 07 25 bf 4b 1a 73 3e
       0.3222181 -0.15488555 -0.6446504 0.23740499
000050 94 f2 77 3e 3f f9 7d 3d 99 48 0c bd 52 f9 12 be
       0.2421363 0.062005278 -0.034248922 -0.1435292
000060 29 ff 8d 3e 41 69 59 3e 00 c5 6c be 87 9c 69 be
       0.27733734 0.21231557 -0.23122025 -0.22813617
000070 a6 0f 85 3e c5 6b 05 3f 0d 76 bb 3d 9c 7e 10 be
       0.259885 0.5211757 0.09153376 -0.14110798
000080 d5 a4 94 be b3 a6 29 3e 31 d8 fc 3e 35 e8 10 be
       -0.29032007 0.16567497 0.4938369 -0.1415108
000090 3e 5c b2 be 2c 39 00 be 2b ba 16 be b6 af c0 3e
       -0.34836 -0.1252181 -0.14719455 0.37634057
0000a0 d4 5b 12 bf a5 e9 34 bf d7 e8 77 bf af b4 ca be
       -0.5717137 -0.70669013 -0.9683966 -0.39590976
0000b0 ea 5d 91 be b5 fa 49 3e 73 d2 94 3e 21 13 15 bf
       -0.28391963 0.19724543 0.2906681 -0.58232313
0000c0 cd 4b fe be bc e9 9f be d0 94 35 bd ac 50 5c 3e
       -0.49667206 -0.31233013 -0.04433137 0.21515149
0000d0 8c d2 e9 3d 48 78 e2 3d df 70 c3 be 41 7d 3c 3e
       0.11417112 0.11058098 -0.3817205 0.18407156
0000e0 6e 99 af 3d 3a b1 2d be ef fb 56 bd 23 03 d6 be
       0.08574186 -0.16962138 -0.052486356 -0.41799268
0000f0 5f a5 84 be 8f 25 e3 be b6 5e d7 3d f6 08 50 3e
       -0.25907418 -0.44364592 0.105161116 0.20315918
000100 7e 1d 28 3e 7d 50 9b bd ea 1b 96 3d 7b d1 94 3e
       0.164175 -0.07583711 0.07329543 0.2906607
000110 91 d7 e6 3e ac ae 65 3e 62 b6 8c 3e 1e 84 84 bc
       0.4508634 0.22429913 0.27482897 -0.01617628
000120 00 98 d8 be 26 59 a4 be 61 8c a5 3d a7 0a 0f 3e
       -0.42303467 -0.32099265 0.08083416 0.13968907
000130 a1 ca 9a bd 91 e7 35 3e 0b d0 a5 3e 1b 72 88 3e
       -0.0755818 0.17764117 0.32385287 0.26649556
000140 ad bb 73 3e 0e 32 69 3e ba 00 45 bd 6f 3e 35 3a
       0.23802061 0.22773 -0.048096396 0.00069139054
000150 31 10 31 3e 70 e3 1b bd 5d 51 2d 3e ec e1 96 bd
       0.17291333 -0.0380587 0.16925569 -0.0736731
000160 aa 6b 01 be 6a 8d 2e 3e 6b f4 c5 be 9f 17 3e bd
       -0.12638727 0.17046133 -0.3866304 -0.046409246
000170 7a 28 05 3e 6b e1 50 3e 4c 06 13 3e 33 75 e4 be
       0.13003722 0.2039849 0.14357871 -0.44620666
000180 11 fc 44 be e1 04 95 be 8a 12 67 be 60 f4 a0 3d
       -0.1923678 -0.29105285 -0.22565666 0.07859111
000190 20 aa b3 3d 47 9b a4 3e 59 72 aa 3e 73 47 62 3e
       0.08772683 0.32149717 0.33290365 0.22097568
0001a0 ea f6 b4 3e 3f 64 1e bf 34 57 0b bf 75 6b f8 be
       0.3534463 -0.61871713 -0.54429936 -0.48519483
0001b0 30 4e 22 bd b3 f5 c7 bd 88 85 c6 3d 0d 73 b3 be
       -0.039625347 -0.0976366 0.09693438 -0.35048714
0001c0 96 b8 03 bf 7a d7 29 bf ac 10 e1 be cc 0d af 3e
       -0.5145353 -0.66344416 -0.43958032 0.34190214
0001d0 f8 dc a5 3c f7 39 44 3e 70 31 28 be 20 ee d7 bc
       0.020246968 0.19162737 -0.16425109 -0.026358664
0001e0 91 c6 84 3e ca f2 77 3d 54 8c 35 3d 92 62 c7 3e
       0.25932744 0.060534276 0.04432328 0.3894239
0001f0 69 a7 e6 3d 66 cb ba 3e fa 12 c1 3d 9b 85 05 be
       0.112624 0.36483306 0.094274476 -0.13039248
000200 09 fe 03 be 2b ca 9b 3e 00 a7 da 3d 7d a1 89 3d
       -0.12889875 0.3042768 0.10676384 0.067202546
000210 0c a9 0e be 65 c1 22 bc 4a ca 00 be 4a b5 67 be
       -0.13931674 -0.009933804 -0.12577167 -0.2262775
000220 15 7e 0d bd b8 a0 13 bc cf 0e 50 bc 70 78 a1 3d
       -0.03454407 -0.009010486 -0.012698843 0.078843
000230 c7 e1 49 3d 97 dd a9 3e 5d cf 7a 3e 14 5a 07 3e
       0.049287584 0.33176872 0.24493165 0.13217956
000240 3a 45 dc bd 89 8a 2d 3d ad d3 08 be 84 3c d5 be
       -0.107553914 0.042368446 -0.13361998 -0.41647732
000250 63 16 a2 be c1 a1 29 bf c7 0e ef bd 00 68 a9 bd
       -0.31657705 -0.6626244 -0.116727404 -0.082717896
000260 ba 05 9a be 15 4c 3e 3e 3d 17 39 be 40 e8 8a be
       -0.30082494 0.1858371 -0.18075271 -0.27130318
000270 b4 f6 5a be 18 36 38 3d c8 aa 3e 3e bb 76 5a 3d
       -0.21383172 0.044973463 0.18619835 0.053335886
000280 0f d5 33 be 95 43 7f 3e 9c 7d f4 3e d6 ea 8b bd
       -0.17561744 0.24928124 0.47752082 -0.06831901
000290 d1 33 e3 be c1 70 da 3c 1c 1e b2 3d e2 47 41 3e
       -0.4437547 0.026665093 0.08697149 0.18875077
0002a0 d9 85 fc be 62 68 1f bf 4f 50 62 3e 2c 8d 93 3d
       -0.49320868 -0.6226865 0.22100948 0.07204661
0002b0 c7 65 8f 3d 35 fa 0f 3d 09 04 8d bb 21 35 bd 3e
       0.07001834 0.035150725 -0.0043034595 0.36954597
0002c0 9c 69 ff 3d 97 e4 81 be b1 59 3d bf 92 f2 ea be
       0.12471315 -0.25369713 -0.73964983 -0.4588819
0002d0 5c 98 4f be 0c 16 2c bf a5 af 68 bf 48 a0 bf be
       -0.20272964 -0.6722114 -0.9089301 -0.37426972
0002e0 7f 54 a8 3c 84 41 c7 be 8b 8f 0c bf b5 34 1c bd
       0.020548103 -0.38917172 -0.5490653 -0.038136203
0002f0 29 45 cb 3d 21 69 e5 3e a4 93 e4 be b3 e1 7f be
       0.09925301 0.4480677 -0.4464389 -0.24988441
000300 63 0f 80 3a 31 b2 b7 3e 93 af 34 3e 82 a4 d3 bd
       0.0009770211 0.35878137 0.17645101 -0.10334112
000310 d3 89 36 3d 8c 8b 65 3e cc 07 37 3e 53 58 61 3e
       0.044565033 0.22416514 0.17874068 0.2200635
000320 94 ab ae bb c9 41 ce bd 1e 13 90 bd 9d ac b8 bd
       -0.0053305123 -0.10071141 -0.07034896 -0.09017298
000330 b4 2a 9c be df df 82 3e bb 38 d0 3c ce c6 20 3d
       -0.3050133 0.25561425 0.025417676 0.039252095
000340 18 08 a6 be a6 dc 23 bf 65 06 c9 3b bf d4 8e 3d
       -0.3242805 -0.6400856 0.0061347955 0.06974172
000350 d0 6c 50 3d f5 a7 65 be 94 6c 55 be 9a 9a bb bd
       0.05088502 -0.22427352 -0.208422 -0.09160347
000360 ef 1c c5 3d c2 9b 38 3e 6b 4d ba 3e d9 44 85 3e
       0.09624659 0.18028167 0.3638719 0.2602909
000370 90 04 10 3e 15 8c 14 bd be 98 4a 3e 60 80 b9 3e
       0.1406424 -0.036266405 0.19784829 0.36230755
000380 ad 86 b9 3e 61 fb e8 3c ee 55 dd 3d 9b bb 5c 3e
       0.36235562 0.02844018 0.108074054 0.21555941
000390 19 30 db 3d bb 04 f0 3d e7 86 c6 be f8 69 9c be
       0.10702533 0.11719652 -0.38774797 -0.30549598
0003a0 af 94 30 bd b7 e3 ff 3d 54 cc 67 3e 00 cc d2 be
       -0.043110546 0.12494605 0.22636539 -0.41171265
0003b0 9c 1f 1b be f4 09 fa bd 4f cd 8a 3e 78 26 61 3e
       -0.15148777 -0.1220893 0.27109763 0.21987331
0003c0 5a 5b 10 bf c9 59 d5 3d 33 d8 d5 3d 46 7e f0 3d
       -0.5638939 0.10417516 0.10441627 0.11742835
0003d0 21 38 91 3e de 39 97 be 19 60 87 3c 2a 68 8a bd
       0.28363135 -0.29536337 0.016525315 -0.06758149
0003e0 cb 7a 96 3e 31 56 ad 3d
       0.2939056 0.08463705

conv1.bias f4 [10]
000000 eb 07 47 be 6a 30 a2 ba 8f f2 19 be 8a ed b0 be
       -0.19436614 -0.0012374048 -0.15033935 -0.34556228
000010 55 3b af bc be 41 47 bc 8f e4 23 bd 11 d9 a6 bc
       -0.021390596 -0.01216167 -0.040012892 -0.020367177
000020 6c 05 4b be 7a f4 9b be
       -0.19826287 -0.30459958

conv2.weight f4 [20, 10, 5, 5]
000000 b7 ab 56 bd a4 25 a6 3d 46 25 26 3e d3 8b 37 be
       -0.052409854 0.08112648 0.16225156 -0.17924432
000010 6c c3 26 3d e9 49 17 be ce aa 69 bd 2f df 11 be
       0.040713713 -0.14774288 -0.057047658 -0.14245294
000020 08 06 be be 36 63 02 be eb 94 14 be 2c 4c 86 be
       -0.37113976 -0.12733158 -0.14509933 -0.2622999
000030 9f 35 3b be a2 5a db be ce 18 19 be 74 53 e4 3d
       -0.18282174 -0.42842585 -0.14950868 0.1114873
000040 3f 41 7f bc c7 95 78 be a3 81 21 be ba e9 60 bd
       -0.015579521 -0.24275886 -0.15772109 -0.0549104
000050 22 48 cb 3e 25 c9 bb 3e cd 0c a9 bc 0c 38 50 bd
       0.3970347 0.366769 -0.020635987 -0.0508347
000060 57 59 d9 bd 51 30 42 be 2c e9 3a be ce ef 1e 3d
       -0.10612743 -0.18963744 -0.1825301 0.038802914
000070 35 7b cd bc 49 c8 30 3e 8b 5a 8b 3e 9e 9d a8 3d
       -0.025083164 0.17263903 0.27217516 0.08233188
000080 f6 6b 1f 3e d5 d6 3b 3b f3 94 bb 3d 87 a3 ab 3d
       0.15568528 0.0028661985 0.09159269 0.083808
000090 c8 0d dd 3d fc f4 0f 3e 8d a1 37 be 42 02 20 be
       0.10793644 0.14058298 -0.1793272 -0.15625861
0000a0 a1 18 56 be d6 4c 81 bc e5 b2 8e be f7 e0 e6 be
       -0.20907833 -0.015783709 -0.2787086 -0.4509351
0000b0 59 89 85 be 72 b9 e5 bc 0a a7 65 3e 35 73 a6 3e
       -0.2608135 -0.028042529 0.22427002 0.3250977
0000c0 e7 97 f4 3e a1 ac 75 3e 0b 3e c1 3d 81 ce eb 3d
       0.47772142 0.23991634 0.09435662 0.11513997
0000d0 a0 d4 14 bd 55 24 63 3e 5b 95 1f 3e 25 2a 10 be
       -0.036335588 0.22181828 0.15584318 -0.14078577
0000e0 0b 7a 61 3e 74 6e 6b 3e e3 b3 c0 3d d7 12 f3 bd
       0.22019212 0.22991353 0.09409311 -0.11868828
0000f0 5e b7 0f 3e 44 ba a4 bd 93 35 6e bd 7b 99 71 3d
       0.14034793 -0.0804334 -0.05815656 0.05898426
000100 6f 6f 79 bc 3c 50 54 3d 87 90 a0 3d f6 36 b0 3d
       -0.015224322 0.05183433 0.078400664 0.08604233
000110 4e 0c 08 3b b6 89 9d bd e2 c8 16 3e 69 28 0f 3e
       0.0020759287 -0.07692282 0.14725068 0.13980259
000120 55 0d d8 3d 65 c9 33 be b3 ae 19 bd 8e 50 81 3d
       0.10549418 -0.17557295 -0.03752012 0.06314193
000130 e2 ae 92 3d 35 a7 d5 3d 2b 44 07 3d 89 dc 85 3e
       0.071622625 0.10432283 0.033023994 0.26144817
000140 e2 24 0e be 78 55 b3 3c 9d 2a 05 3e 86 37 69 bd
       -0.13881257 0.02189134 0.13004537 -0.056937717
000150 ee fd 96 3d 6b d5 95 be 1e 91 09 be 07 dd 53 3d
       0.07372652 -0.29264387 -0.13434264 0.05172446
000160 e3 86 bb bc 24 5f ed bd 69 da 9e bd b5 43 15 be
       -0.022891467 -0.11590412 -0.07756502 -0.1457661
000170 9b c8 15 be eb cc 3b bd 59 b6 3c be de fa 2a 3d
       -0.14627306 -0.045849722 -0.18428935 0.04174315
000180 8e 83 56 bd 24 57 02 3c b5 c4 fa bc 4e f0 84 bb
       -0.052371554 0.007955346 -0.030611375 -0.004056967
000190 47 f8 29 be ae a3 96 be fa b6 9e be 40 38 63 bd
       -0.16598617 -0.29421753 -0.30998975 -0.055473566
0001a0 36 c7 3c 3e b9 10 9c be 66 12 58 be fd c3 75 3d
       0.18435368 -0.30481508 -0.21100768 0.060001362
0001b0 3d fc 4a bd d0 4e b9 bd 41 93 21 3e 05 9a 02 3f
       -0.04955696 -0.090482354 0.15778829 0.51016265
0001c0 26 e0 d7 3e 9f 7e 3c 3e ec 5a 81 bd 2c b3 81 3e
       0.421632 0.18407677 -0.0631617 0.2533201
0001d0 e3 88 60 3e 74 84 78 3e a4 90 3a 3e f5 67 35 3d
       0.21927218 0.24269277 0.18219239 0.044288594
0001e0 1b 53 0a 3d 25 3b 11 be 9f 89 25 3d 58 70 1a 3e
       0.03377066 -0.14182718 0.04041445 0.15081918
0001f0 fb cc 99 3e c5 3c 55 bd 68 1d b3 3d 90 db 0b 3e
       0.300392 -0.052059907 0.08745843 0.13657975
000200 3d 90 ff 3d be d5 d0 3e bc b1 60 be 7b 6c 3d bd
       0.12478683 0.40788072 -0.219428 -0.046246033
000210 23 c2 32 3e 00 b0 82 bd c1 0a 68 bd fa 55 45 be
       0.1745687 -0.063812256 -0.05665088 -0.19271079
000220 a2 cb 51 be cc 8d bb bd 4b 1f 1f bd b3 dc 68 bd
       -0.20487836 -0.09157905 -0.038848203 -0.0568511
000230 22 3c 6f be c5 00 f4 3c 05 93 4a be f9 c6 c5 bd
       -0.23362783 0.029785523 -0.19782646 -0.09657092
000240 72 29 8c bd 25 20 1e be d8 59 1c 3e 1c 88 95 bc
       -0.068438426 -0.1544195 0.15268648 -0.018253379
000250 48 c1 21 3e d6 a0 d8 bb c5 d5 3c 3e 40 3f 8b 3e
       0.15796387 -0.00661097 0.18440922 0.27196693
000260 54 31 1f 3e 49 fa 06 3e 86 59 0a 3e 18 47 d9 bd
       0.15546161 0.13181414 0.13510713 -0.10609263
000270 7f 22 d3 bd 64 f0 ad be 87 26 30 be 2e 0e 9c be
       -0.10309314 -0.33972466 -0.17202197 -0.30479568
000280 ed b6 61 be b8 dd d4 bd 71 1f b0 be dc 55 a4 be
       -0.22042437 -0.10393852 -0.34398988 -0.32096756
000290 e4 eb 00 bd b1 33 bf 3d 5a c6 4e be 83 2a 41 be
       -0.031474963 0.09336031 -0.20192853 -0.18863873
0002a0 9e 2f e2 3d 88 06 50 3e 3f 2a b6 3e f9 4c 7a 3d
       0.110442385 0.20314991 0.35579106 0.061108563
0002b0 b1 dd 06 bc 51 83 58 3e 49 c2 fa bd c5 ab 15 3e
       -0.008231566 0.21143843 -0.12244088 0.14616306
0002c0 56 fe 12 3e 8c ce 9a 3e 76 0e 97 3e 76 a6 4f 3e
       0.14354834 0.30235708 0.2950322 0.20278344
0002d0 1d 80 2b be 0b e8 1f 3d f6 45 52 3d 1a 50 e7 3d
       -0.1674809 0.039039653 0.05133625 0.11294575
0002e0 39 50 8e bc 08 b6 39 3d 3c 87 81 be 68 7e 8c be
       -0.017372238 0.045339614 -0.25298488 -0.2744019
0002f0 ea c4 b8 bd 38 e9 b9 bd b7 de 0d 3e 04 93 93 bd
       -0.090219334 -0.09077686 0.1385449 -0.072057754
000300 5a 88 e0 3d cf d7 9a 3e b3 2f 37 3e 84 ed 85 3e
       0.10963507 0.30242774 0.1788929 0.26157773
000310 a0 0c 18 be 71 79 5d be e9 81 11 3d 4b 25 b9 3c
       -0.14848566 -0.21628357 0.035524283 0.02260079
000320 58 b9 04 bc 13 63 5e be c9 2b e4 bd de c1 0c bd
       -0.00810083 -0.21717481 -0.11141164 -0.034364574
000330 76 50 f9 3d 30 20 fc bd 3d 09 c7 bd 9c 40 45 3c
       0.1217355 -0.12310827 -0.09718559 0.01203933
000340 1b c8 45 be d9 ec 87 be d2 6a 50 3e b2 25 02 3e
       -0.19314615 -0.26547888 0.20353249 0.12709692
000350 ea 4f 2f 3d 22 ec 3c be 01 f3 95 be 65 d8 aa bd
       0.04280082 -0.18449453 -0.2928696 -0.08342055
000360 3e cd c3 3d 9c ae 84 ba d2 66 41 3a 87 53 06 be
       0.09560631 -0.0010122838 0.0007377687 -0.131178
000370 5e f5 9e bb e9 fb b7 bc ee 43 1d 3e 68 90 13 3e
       -0.0048510274 -0.022458987 0.15357944 0.14410555
000380 c0 a0 1a bd a6 11 96 bd f2 f8 85 3e 2a 33 89 3e
       -0.03775096 -0.07327585 0.26166493 0.26796848
000390 8b 89 b0 3e 47 33 f1 3d 92 e9 3e bf a3 cf 65 be
       0.34479937 0.117773585 -0.7457515 -0.22442488
0003a0 96 93 fa 3c 08 2c 49 be 7b 0c 47 be 0e 29 44 bf
       0.030587953 -0.19645703 -0.19438355 -0.76625144
0003b0 b4 f3 72 be 95 f2 74 be 2d ad 35 be 8d 2a c5 bd
       -0.23725778 -0.23920663 -0.17741843 -0.096272565
0003c0 c3 e4 56 bc 62 5a 95 bd ee 9d 1a be 9b 28 02 3d
       -0.0131160645 -0.0729263 -0.15099308 0.031777006
0003d0 40 66 44 3c bd c2 48 bc d0 49 d6 bd 93 62 e4 bd
       0.011987269 -0.0122534605 -0.10463297 -0.11151614
0003e0 37 0c dd bd dc 3a 77 be 47 b7 82 3d 52 dd 07 3d
       -0.107933454 -0.24143547 0.06382614 0.033170052
0003f0 2f 93 0b 3e 31 eb 5a 3d 0e 66 1b bd f5 60 e8 bc
       0.13630365 0.053446952 -0.037939124 -0.028366545

conv2.bias f4 [20]
000000 08 6e 27 be 6f 0c a8 be 55 b2 7f be 67 26 11 be
       -0.16350567 -0.32821986 -0.24970372 -0.14174806
000010 38 d5 16 3d a8 45 22 3e e7 de 69 bd e3 91 e3 bd
       0.036824435 0.15846884 -0.057097342 -0.1111181
000020 25 5c f9 3d 82 70 93 be ea f2 f6 3d 58 f9 86 bd
       0.12175778 -0.28796774 0.12058051 -0.06590527
000030 9d ac da bd 1b 11 38 3e cf 25 dc bd 6c 38 56 bd
       -0.106774546 0.17975275 -0.10749399 -0.0522999
000040 5b f3 e2 bd c4 29 35 3c 14 f3 3a be ae d2 88 bd
       -0.110815726 0.011057321 -0.1825679 -0.06680809

fc1.weight f4 [50, 320]
000000 e1 74 75 be b3 4a cf be e6 4b 79 bd c8 95 ac 3d
       -0.23970367 -0.40486678 -0.060863398 0.08427006
000010 b6 37 0f bf c8 07 b0 bd 40 ad 19 3e 2b fd 00 3e
       -0.55944383 -0.08595234 0.15007496 0.12596576
000020 13 81 cf 3d 7c 88 e1 bc a8 ae 5a bd cc 86 c6 be
       0.10132041 -0.027530901 -0.05338922 -0.38774717
000030 6f 3c 1a 3e b2 d7 e7 bd 68 c1 97 bd 40 16 9e be
       0.15062116 -0.113204375 -0.07409936 -0.3087635
000040 93 46 5c be 70 6d ee bb e4 5e 96 3e 42 13 c3 3e
       -0.21511297 -0.0072762296 0.2936927 0.3810063
000050 b2 a5 21 3e a2 ed f1 be ab d3 18 3e fe d0 ab 3d
       0.15785864 -0.47251612 0.14924495 0.083894715
000060 06 dd a8 bd 9d f5 1f bd df 29 25 3e dc 3f bc bd
       -0.08245282 -0.039052594 0.16129254 -0.09191868
000070 dd 04 67 3d 7d 19 0b 3e 5b 23 62 bd 33 f3 94 bd
       0.056401122 0.13583942 -0.0552095 -0.07272949
000080 05 bd 3a 3e c8 05 3e 3e 59 09 e6 3d 16 98 35 3d
       0.18236168 0.18556893 0.11232252 0.044334494
000090 2a cf 94 3d 35 d2 0a bd 8f 73 b2 3d f6 62 5e be
       0.07266076 -0.033891875 0.08713447 -0.21717438
0000a0 d2 ca 81 be 8b c0 36 bd 68 60 df bd 55 42 00 3c
       -0.25350052 -0.044617217 -0.1090706 0.007828315
0000b0 b9 fe 85 3d 76 39 11 3d e7 02 b5 bd 82 72 81 be
       0.06542725 0.03545519 -0.08838444 -0.25282675
0000c0 42 e4 2f bf fe d0 59 b9 f2 8f 54 3d 9f 89 a8 3e
       -0.6870767 -0.00020772588 0.05189509 0.32917497
0000d0 9c f5 8a bd 7c 29 99 bd d6 0b fa bd 6d 0c 7d 3d
       -0.067851275 -0.07478616 -0.12209289 0.06177943
0000e0 64 20 a0 3d 74 6f 35 3e 09 c1 cb bd a8 19 af bd
       0.07818678 0.17718297 -0.09948928 -0.085498154
0000f0 a7 70 4f bd 44 a2 52 bd 2c 17 df bd 12 09 1f 3e
       -0.050644543 -0.05142428 -0.108930916 0.15530804
000100 07 67 3c 3e 9f 3b 69 3d 29 13 f8 bd 04 29 93 3c
       0.18398677 0.056941625 -0.121130295 0.017963894
000110 67 c6 a7 bc a2 b7 86 be 3b 63 cc 3c c4 2a e8 3a
       -0.020480348 -0.26311976 0.02494966 0.001771294
000120 91 e0 ef 3c 1f d4 69 bd 74 4f 10 3e f9 12 a2 bc
       0.029281886 -0.05708706 0.14092809 -0.019784437
000130 a7 7c 17 3a 07 b4 99 3e 56 ea 97 3c 99 7c b7 bd
       0.00057787675 0.30020162 0.018544357 -0.08959312
000140 da 77 e0 bd 1d 9e 27 3e ff fc 79 3e cf b7 71 3d
       -0.1096036 0.16368909 0.24412917 0.059013184
000150 b0 43 16 3e a7 5e 09 bd 7e 54 81 3e 97 cd da 3d
       0.14674258 -0.033537533 0.25259775 0.106837444
000160 9d ce bf bd ce c2 a9 3d f5 99 02 be 5b 76 ff 3d
       -0.0936558 0.08289109 -0.12754042 0.124737464
000170 c7 89 89 be 19 17 41 3d 60 10 a2 be fe f4 54 bb
       -0.26862928 0.04714117 -0.31653118 -0.003249466
000180 0b 13 70 bd c3 96 00 bd fa 8c 8c ba 32 4d 5d 3d
       -0.05861191 -0.031393778 -0.0010723167 0.054028697
000190 af db 55 3a cf 7f 7e 3c fc ac 80 3e 45 78 33 3e
       0.00081580406 0.015533402 0.25131977 0.17526348
0001a0 51 ba 41 be 03 e0 49 3c f5 9e bf 3c af d3 23 3e
       -0.1891873 0.012321475 0.023391226 0.1599872
0001b0 9d d7 2a be 1f 6f 8c bb dc e4 d2 bd 6a 36 b4 bb
       -0.16683812 -0.0042857076 -0.10297558 -0.0054996507
0001c0 17 f9 53 bd 93 b0 48 3c 66 b4 ae 3d 53 4d ea bd
       -0.051751222 0.01224913 0.08530502 -0.1144053
0001d0 60 1b 02 3e 0d 26 49 3d e7 28 07 3e b1 c0 a6 bc
       0.12705755 0.049108554 0.13199197 -0.020355554
0001e0 9e 95 e3 bc 91 b3 72 3b f1 f6 10 bd 15 74 2a bd
       -0.027781304 0.00370333 -0.03539175 -0.04161461
0001f0 0d 4e 4c bd 51 9d 1c be fd 38 49 be e5 a9 be 3c
       -0.049879123 -0.15294386 -0.19650646 0.023274371
000200 eb c5 21 bf 2c 01 d5 be 26 5d 5f 3e fb de f7 3e
       -0.63192624 -0.41602457 0.21812877 0.48412308
000210 1f f7 31 bf 62 69 b1 bd 13 44 06 be d7 cc d6 3e
       -0.695177 -0.08662678 -0.13111906 0.41953155
000220 61 98 8d bc 62 56 37 3e 89 26 34 bd 49 5f 1e 3d
       -0.017284574 0.17904046 -0.043982062 0.03866509
000230 7c 2e 1e 3e 78 f0 67 3c 1b 14 3a 3c a6 94 0d 3b
       0.1544742 0.014156453 0.011357333 0.0021603494
000240 68 31 4c bd e2 4d 75 bd 70 27 00 bd e3 18 78 3e
       -0.049851805 -0.059888728 -0.03128761 0.24228244
000250 dc 15 92 bc e7 b0 97 bd d3 db 11 3e 91 fb 3c 3e
       -0.017832689 -0.07406788 0.14244013 0.1845534
000260 85 d3 4c be 70 7e df 3d 57 b9 39 be cf 5c e8 bd
       -0.20002563 0.10912788 -0.18137108 -0.11345827
000270 34 c4 1f 3e 8d 1e 3f 3c 87 80 ca be 26 cc 0f 3b
       0.1560219 0.011664999 -0.39551184 0.002194175
000280 a3 83 85 3d 3f ff 31 3e e7 e7 18 3d d3 1c 07 3e
       0.06519248 0.17382525 0.037330534 0.1319459
000290 0c b7 8d bc 54 8e 63 bd fe 73 83 3d a6 1a b3 be
       -0.017299198 -0.055555657 0.06418608 -0.3498127
0002a0 e6 58 fd 3c df b9 2a 3d 3f 5f 96 3d 59 22 46 3c
       0.03092618 0.041681167 0.073423855 0.01209315
0002b0 bc 85 3b be b8 fe 2b bc 2f 06 d7 3d bd 80 1b 3e
       -0.18312734 -0.010497741 0.10499226 0.15185829
0002c0 30 0b 65 3d f8 d3 94 bc 71 63 57 bd 63 60 ae bc
       0.055918872 -0.01816748 -0.05258507 -0.021286195
0002d0 11 1f 72 3d 8f 14 36 3d 59 c1 0a bd 53 70 39 be
       0.05911166 0.0444532 -0.033875797 -0.18109255
0002e0 4b 61 15 be 54 64 cf 3d b6 80 ba bc 7f da 18 bd
       -0.14587896 0.10126558 -0.022766452 -0.03731775
0002f0 cc 6f 8c 3d e0 b0 54 3e 7d d4 8b 3d 30 11 54 be
       0.06857261 0.20770597 0.06827638 -0.20709682
000300 b8 7b ca be 87 80 29 be c2 ca 2d be af d8 dc 3b
       -0.39547515 -0.16552936 -0.16971877 0.006739698
000310 50 bc 6d 3a b9 6d 12 3e ea 29 ae bd fb 4c ea bc
       0.0009068893 0.14299668 -0.08504088 -0.02860116
000320 9e ca fc 3d 9a f9 26 3e 76 a0 9f bd 77 09 52 be
       0.12343334 0.16306153 -0.07794277 -0.20511423
000330 54 89 de bd f3 88 fa bd bd 37 8a 3d 4d 5d 74 3e
       -0.10866037 -0.12233152 0.067489125 0.23863716
000340 03 4c c5 3e b9 e0 99 3c 95 e8 a5 bc 97 41 e4 bd
       0.38534555 0.018783914 -0.020252505 -0.11145323
000350 ae ab 01 3e d9 84 14 3e ad a8 05 3c c3 7b 87 3d
       0.12663147 0.14503802 0.008157891 0.066154025
000360 a0 f7 1d be 58 36 88 be 5b dc 29 3d 3f 1a ad bc
       -0.15426493 -0.2660396 0.041469913 -0.02113068
000370 b8 c5 e1 bd c5 47 13 3e 80 37 ec 3c 9f 1b a5 bb
       -0.1102404 0.14382847 0.028835058 -0.005038693
000380 a4 c1 dd be 2f 5c 60 be 0b 1a f0 bd ad 30 59 3e
       -0.433118 -0.21910165 -0.11723717 0.21209975
000390 f9 b4 72 be 2f e4 0a be 3c c6 e0 bd 7d 92 37 3d
       -0.23701848 -0.13563608 -0.1097531 0.044817436
0003a0 67 9d 65 3d 2a 3d 0e 3e ba 62 23 bd 49 d1 c4 be
       0.056058314 0.1389052 -0.039889075 -0.38440922
0003b0 ba 0c 56 3d 54 09 c4 3d 0f 4b ef 3c 3e 80 6d be
       0.05225823 0.09572092 0.029210595 -0.23193452
0003c0 91 3e 00 be 96 c8 ad 3e b6 fb b6 3d 0a c9 fb 3d
       -0.12523867 0.33942097 0.08934729 0.122942045
0003d0 82 14 2c 3d b6 4f 18 3e 79 d2 03 bd 91 58 05 bd
       0.042011745 0.14874157 -0.032183144 -0.032555167
0003e0 20 0c 14 be 3e ce 22 bd 2b cf 14 3e c3 58 9e be
       -0.1445775 -0.03974747 0.14532153 -0.30927095
0003f0 ca a3 49 bc 4b 61 b8 3d d9 8a 98 3e c4 79 37 be
       -0.012307117 0.09002932 0.29793432 -0.17917544

fc1.bias f4 [50]
000000 c6 46 ad 3e 88 e9 ef 3e 50 51 01 3f 9a 51 91 3e
       0.33843058 0.46857858 0.505147 0.2838257
000010 8a 36 b7 3d 65 f4 6b 3e ab 27 07 3f 86 ab ed 3d
       0.089459494 0.23042448 0.52794904 0.11604981
000020 7b b6 bd 3e 52 d4 19 3f b2 81 3c 3e 5b f9 8c 3e
       0.37053284 0.600896 0.1840885 0.27533993
000030 8d cb fd 3c df 3f 16 3c b5 9f 8b 3d 66 8e a5 3e
       0.03098085 0.0091705015 0.06817571 0.32335204
000040 1b 2b 44 3e c8 cb f3 3e 93 14 15 3e 25 4c f0 3d
       0.19157068 0.4761641 0.1455863 0.117332734
000050 5e ef e2 3d 5e 71 aa 3e d0 38 76 3e 72 63 cd 3e
       0.11080812 0.33289617 0.2404511 0.40114933
000060 3a 86 1e 3e 4f da 67 3e 3f 18 90 3e 71 4b ec 3e
       0.15480891 0.22641872 0.28143498 0.46151307
000070 0c e8 e0 3e c2 50 c7 3d 6d 71 98 3e 8b 64 97 3c
       0.43927038 0.097322 0.29774037 0.01848056
000080 a6 58 cd 3d ea a9 57 bd ce e7 ad 3e e6 be c4 3e
       0.10026674 -0.052652277 0.33965915 0.38426894
000090 21 8a 38 3f 87 3d 4d 3e f2 fb 1f 3f 8c 25 98 3e
       0.7208577 0.20043002 0.62493813 0.29716146
0000a0 ea ab e8 3e d6 d2 d5 3d e1 8d c3 3e 38 88 49 3e
       0.4544366 0.104406044 0.38194183 0.1968087
0000b0 6e 11 1f 3e b3 ff 75 3c c3 6d 13 3d c4 98 d3 3e
       0.15533993 0.015014577 0.03599335 0.41327488
0000c0 f4 da 47 3d e4 a1 23 3e
       0.048792794 0.15979725

fc2.weight f4 [10, 50]
000000 1d 4a eb be 56 f3 93 be f7 b9 f6 be f0 22 9d be
       -0.4595498 -0.28896588 -0.48188755 -0.30690718
000010 da e8 da be 53 13 ad be fc fc 6e 3e aa ab bb be
       -0.42755777 -0.33803806 0.23338693 -0.36654407
000020 02 17 fd be e4 b0 04 be 3a 0d cf be 40 99 cd 3d
       -0.49431616 -0.12958103 -0.4043978 0.10038996
000030 ee db aa be 78 c2 36 be e6 80 e9 be 7a de b7 be
       -0.33370918 -0.17847621 -0.45606154 -0.35911924
000040 c2 62 52 3d 45 d0 1f 3e 48 96 6d 3e af 75 b8 be
       0.051363714 0.15606792 0.23201859 -0.36027285
000050 50 ac 28 be 62 8f 4f 3e 59 e5 86 be 10 b0 07 bf
       -0.16471982 0.2026954 -0.26346853 -0.53003025
000060 9d fc 8e be d4 31 30 3e 61 7a f4 3d 5a 7b 94 be
       -0.27927104 0.17206508 0.119374044 -0.2900036
000070 84 40 72 be d8 04 00 3d ce cf 63 be 9c 58 42 be
       -0.23657423 0.03125462 -0.2224724 -0.18979114
000080 7d 03 cf 3d ec 47 86 be ff c2 88 3e 9e 82 bf be
       0.10108087 -0.26226747 0.2671127 -0.3740434
000090 58 11 4d 3e cf 5f b1 3d 62 a3 93 be d9 70 de 3d
       0.20026147 0.08660852 -0.2883559 0.10861368
0000a0 8f a7 7c be 1e bb 0d 3e c9 48 09 bf fd 9a 18 3e
       -0.24673294 0.13840911 -0.53626686 0.14902873
0000b0 d4 1f af be 6e 46 0d bf 0e 1c 03 bf 63 e0 5a 3e
       -0.3420397 -0.5518559 -0.51214683 0.21374659
0000c0 48 5b 10 3e a2 27 14 3e 05 f5 1d 3e d3 5a 1a 3e
       0.14097321 0.14468244 0.15425499 0.15073709
0000d0 13 2c 0a 3e 36 58 22 3e 49 f8 39 be 65 c6 a5 3c
       0.13493375 0.15853962 -0.1816112 0.020236203
0000e0 57 a7 8b 3e fb 9a 8a be 41 56 81 3d 6c ec 48 3e
       0.27276108 -0.27071366 0.0631528 0.19621438
0000f0 a5 b8 39 3e 79 c2 c5 be 9e 57 25 bf 92 2b 06 bf
       0.18136843 -0.38624933 -0.6458682 -0.52410233
000100 ae 1d d9 be 20 47 54 3e 5f dd 7a bd fe 96 32 be
       -0.42405456 0.20730257 -0.061246272 -0.17440411
000110 96 ab 9b be db ca 9e be e2 9b 81 be 40 55 e4 be
       -0.30404347 -0.3101414 -0.25314242 -0.4459629
000120 21 e9 dd 3d c6 7f f3 3d 44 d1 fa bd 9f fa b5 be
       0.108354814 0.11889605 -0.122469455 -0.3554277
000130 33 0e c2 be 67 61 18 3e d6 ec f0 3d 49 ed 5d be
       -0.37901458 0.14880906 0.11763923 -0.21672548
000140 c8 c2 3c 3e e5 c8 ba be 9a a0 f6 be af 8a 11 bf
       0.18433678 -0.36481395 -0.48169404 -0.5685224
000150 d7 6a 1f bf 5a c1 10 3e 69 50 20 3e ee 99 bc be
       -0.622724 0.14136258 0.15655674 -0.3683619
000160 20 84 85 3e 2c 61 ec be 00 42 3b 3e ce e3 c1 be
       0.26077366 -0.46167886 0.18286896 -0.37869114
000170 00 7e 4a 3d a2 fd c0 be 0f 4e c6 be 6c 8f bd be
       0.04943657 -0.37693506 -0.3873143 -0.37023485
000180 7a 80 2c be f0 44 35 3e 97 56 be be 38 0e 05 bf
       -0.16845885 0.17702079 -0.37175438 -0.5197482
000190 59 5e a8 be 29 2e 33 3e 41 04 62 be 1a cd 15 3e
       -0.32884482 0.17498077 -0.22071935 0.14629021
0001a0 eb 3f 58 be 40 d9 e6 be 76 3e 20 bd bc 6f fa 3d
       -0.21118133 -0.45087624 -0.039122067 0.12228343
0001b0 21 e3 04 3e 95 de ae be e2 8a f0 3d 5b c6 9a 3d
       0.12977268 -0.34154192 0.1174524 0.075573646
0001c0 a0 ed 32 be 1e 58 19 3e 0d 54 ca be 3a c7 32 3e
       -0.17473459 0.1497502 -0.3951725 0.17458811
0001d0 3d a0 60 be d2 ec ff 3d ac 75 5f 3e f7 6a 11 3e
       -0.21936126 0.12496342 0.21822232 0.1420096
0001e0 4b b9 ec be d3 e6 7d be 98 c6 de 3d 0b c6 0c 3e
       -0.46235117 -0.24795084 0.108777225 0.13747422
0001f0 6b d2 46 3e 11 6a b6 be 85 32 b1 3d 12 f1 40 be
       0.19416206 -0.35627797 0.08652214 -0.18841961
000200 13 d6 0b 3e 62 d0 0e 3e 7d 02 30 3e b2 1e 04 3e
       0.13655882 0.13946679 0.17188449 0.12902334
000210 5f 65 85 be 1f 1f 9f be a6 2a be be 6a 09 63 be
       -0.26053903 -0.3107843 -0.37141913 -0.2217156
000220 76 0f 02 3e 52 fa da 3d 32 42 8d be a2 42 9a be
       0.1270121 0.10692276 -0.27589566 -0.30128962
000230 fc 56 92 be 7e 46 9d 3d ee c6 8b be 77 e2 e0 3d
       -0.2858199 0.07679461 -0.2730021 0.10980695
000240 b4 12 3c bc 35 5c a5 bd a3 7f 31 be 56 78 86 be
       -0.011479069 -0.08074228 -0.17333846 -0.26263684
000250 65 ab 56 be 09 00 73 bd 9a 7c 8b be dc 1c 39 be
       -0.2096382 -0.059326205 -0.272435 -0.18077415
000260 3a 24 c9 be c9 bc 43 be f5 8b 27 3e 20 93 c3 3d
       -0.3928545 -0.19114985 0.16361983 0.09549546
000270 50 56 86 be d8 21 05 3e d0 a2 ee 3d d6 4d 15 bf
       -0.26237726 0.13001192 0.11652148 -0.58321893
000280 cf 15 26 3e 27 c7 12 3d ac 34 83 be 4f 6e 3c be
       0.16219257 0.035834458 -0.25626123 -0.18401454
000290 52 17 70 3d 3b d7 b1 bd f4 b2 e9 3d d1 5b 1f 3e
       0.05861599 -0.0868363 0.11411086 0.15562369
0002a0 d5 5e 10 be 0a 5f 8b be 91 8c 2e be cf 62 d3 bd
       -0.14098676 -0.27220947 -0.1704581 -0.103215806
0002b0 a3 dc e4 3d 0b bd 00 3e f9 18 41 3e 14 ab 65 be
       0.111748956 0.12572114 0.18857183 -0.22428542
0002c0 bf f6 e8 3d 06 f9 94 be 62 ab 17 3e 42 eb 12 3e
       0.11375188 -0.2909624 0.14811471 0.14347556
0002d0 12 70 94 bd 11 d9 0a be f8 2e ef be 8b c5 49 be
       -0.07247938 -0.13559367 -0.46715522 -0.19704263
0002e0 e1 19 77 be 98 a6 26 3e 5a 55 3b be 9f 94 63 be
       -0.24130966 0.16274488 -0.18294278 -0.22224663
0002f0 77 3b 3f be dc 7f 0f 3e 7f 11 30 be cf ae 7e be
       -0.18675028 0.14013618 -0.17194174 -0.24871372
000300 5e 76 72 be 87 85 22 be ee 0c 5e 3e d1 fa 09 be
       -0.23677966 -0.15871249 0.2168462 -0.13474585
000310 f4 91 26 3e e0 6f cf be a8 30 31 3e 2b c5 29 be
       0.16266614 -0.4051504 0.17303717 -0.1657912
000320 67 19 1d 3e e1 7e 24 be f3 34 17 3e 4f f7 c6 3d
       0.15341721 -0.16064025 0.14766292 0.09715139
000330 10 27 0a 3e 45 56 00 be 32 b3 77 3e 97 5e 2c 3e
       0.13491464 -0.12532909 0.24189451 0.16832958
000340 a3 92 df be 0d 33 05 3e 1d 46 66 be 4c 39 d5 be
       -0.43666562 0.13007756 -0.22487684 -0.41645277
000350 d6 19 78 3e f3 de 4b 3e 2f b5 07 be 9d ea 51 be
       0.24228606 0.19909267 -0.1325271 -0.20499654
000360 bc e1 df be 60 85 8d bd 4a d0 12 be 93 c2 2d 3e
       -0.4372691 -0.06910205 -0.14337268 0.16968755
000370 de f7 2f be 52 f8 4b be 01 d0 be be 38 0a 12 3e
       -0.17184398 -0.19918945 -0.3726807 0.1426171
000380 1d 9a 6e be 51 d8 9f be 9f 59 b2 be 50 37 03 3e
       -0.23300977 -0.31219724 -0.34834 0.12814069
000390 21 f9 9b 3c 39 d5 52 be e0 0a 16 3e 04 7b c4 be
       0.019039692 -0.2058915 0.14652586 -0.38375103
0003a0 67 2d eb 3d 67 c6 d6 3d df bc f1 bd 4d 22 b6 3d
       0.11483269 0.10487061 -0.118036024 0.08893261
0003b0 18 4d a2 be c2 22 ba 3d 1a f2 08 be 5f 8f 03 bf
       -0.31699443 0.09088661 -0.13373604 -0.5139064
0003c0 b4 88 79 be 3a cf dd 3d 53 f0 08 3e da e7 67 be
       -0.24368554 0.10830541 0.13372926 -0.22647038
0003d0 16 74 db bd 16 ea 1b 3e 7c 2c ec 3d f4 d6 09 3e
       -0.10715501 0.15226015 0.11531922 0.13460904
0003e0 98 e4 49 be 11 ef 39 3e 39 4e 1c 3e 3e c7 dd bd
       -0.19716108 0.18157603 0.15264215 -0.10829018
0003f0 79 87 8e be 62 97 00 bf 16 09 39 3e 19 70 1d 3e
       -0.27837732 -0.5023099 0.18069872 0.15374793

fc2.bias f4 [10]
000000 7b 0c 6d 3f 7d 68 80 3f dc a1 22 be 76 d0 b6 3a
       0.9259717 1.0031887 -0.15882057 0.0013947624
000010 6d 0c 17 bf 0f a2 92 bd 59 f7 4c be 75 8a b2 be
       -0.59003335 -0.071598165 -0.2001623 -0.3487126
000020 37 a5 87 3e 37 00 26 bf
       0.26493236 -0.6484408
